Model: "sequential"
_________________________________________________________________
Layer (type)                 Output Shape              Param #   
=================================================================
conv2d (Conv2D)              (None, 47, 47, 8)         104       
_________________________________________________________________
activation (Activation)      (None, 47, 47, 8)         0         
_________________________________________________________________
conv2d_1 (Conv2D)            (None, 46, 46, 8)         264       
_________________________________________________________________
activation_1 (Activation)    (None, 46, 46, 8)         0         
_________________________________________________________________
max_pooling2d (MaxPooling2D) (None, 23, 23, 8)         0         
_________________________________________________________________
dropout (Dropout)            (None, 23, 23, 8)         0         
_________________________________________________________________
conv2d_2 (Conv2D)            (None, 22, 22, 16)        528       
_________________________________________________________________
activation_2 (Activation)    (None, 22, 22, 16)        0         
_________________________________________________________________
conv2d_3 (Conv2D)            (None, 21, 21, 16)        1040      
_________________________________________________________________
activation_3 (Activation)    (None, 21, 21, 16)        0         
_________________________________________________________________
max_pooling2d_1 (MaxPooling2 (None, 10, 10, 16)        0         
_________________________________________________________________
dropout_1 (Dropout)          (None, 10, 10, 16)        0         
_________________________________________________________________
flatten (Flatten)            (None, 1600)              0         
_________________________________________________________________
dense (Dense)                (None, 16)                25616     
_________________________________________________________________
activation_4 (Activation)    (None, 16)                0         
_________________________________________________________________
dense_1 (Dense)              (None, 32)                544       
_________________________________________________________________
activation_5 (Activation)    (None, 32)                0         
_________________________________________________________________
dense_2 (Dense)              (None, 48)                1584      
_________________________________________________________________
activation_6 (Activation)    (None, 48)                0         
_________________________________________________________________
dense_3 (Dense)              (None, 6)                 294       
=================================================================
Total params: 29,974
Trainable params: 29,974
Non-trainable params: 0
_________________________________________________________________
Accuracy : 45.48670053482056 %
Loss : 1.3742585182189941